notebooks/temp_model/indy03/baselineRSNN-True.pth (torch, 26067 bytes, 13 tensors)

group2.mem_param f2 [64]
0	0x3b8d	0.944
1	0x41c3	2.88
2	0x46bb	6.73
3	0x418c	2.773
4	0x392d	0.647
5	0x4081	2.252
6	0x4474	4.453
7	0x3e45	1.567
8	0x4676	6.46
9	0x3dc4	1.441
10	0x3cc5	1.192
11	0x3c3c	1.059
12	0x3c24	1.035
13	0x400a	2.02
14	0x4096	2.293
15	0x4460	4.375
16	0x3d80	1.375
17	0x40c7	2.389
18	0x4369	3.705
19	0x40bb	2.365
20	0xb00c	-0.1265
21	0x3cb7	1.179
22	0xb876	-0.5576
23	0x408b	2.271
24	0x3ba0	0.953
25	0x44b4	4.703
26	0x3514	0.3174
27	0x40df	2.436
28	0x44a3	4.637
29	0x4214	3.04
30	0x4402	4.008
31	0x3e39	1.556
32	0x4041	2.127
33	0xb833	-0.525
34	0x43c5	3.885
35	0xbd41	-1.313
36	0x3cba	1.182
37	0x40cc	2.398
38	0x3c7c	1.121
39	0x3543	0.3289
40	0x4033	2.1
41	0x3ccd	1.2
42	0x42e0	3.438
43	0x3842	0.532
44	0x38bf	0.5933
45	0x3993	0.697
46	0x406c	2.21
47	0x4454	4.33
48	0x47a3	7.637
49	0x4145	2.635
50	0x46c3	6.76
51	0x351f	0.32
52	0x4838	8.44
53	0x4087	2.264
54	0x4227	3.076
55	0x3ac4	0.8457
56	0x42f0	3.469
57	0x4005	2.01
58	0x3cd0	1.203
59	0x3e1b	1.526
60	0x4003	2.006
61	0x4245	3.135
62	0x44dc	4.86
63	0x4183	2.756

group2.syn_param f2 [64]
0	0x411f	2.56
1	0x442e	4.18
2	0x481a	8.2
3	0x42c2	3.379
4	0x450a	5.04
5	0x44f1	4.94
6	0x40eb	2.459
7	0x4133	2.6
8	0x3c72	1.111
9	0x4457	4.34
10	0x4403	4.01
11	0x3dd9	1.462
12	0x4485	4.52
13	0x42de	3.434
14	0x40c6	2.387
15	0x461a	6.1
16	0x4482	4.508
17	0x405c	2.18
18	0x42bf	3.373
19	0x4509	5.035
20	0x41a4	2.82
21	0x4557	5.34
22	0x4659	6.348
23	0x4707	7.027
24	0x42f6	3.48
25	0x446b	4.418
26	0x4124	2.57
27	0x412f	2.592
28	0x427f	3.248
29	0x4246	3.137
30	0x45a3	5.637
31	0x44a5	4.645
32	0x4876	8.92
33	0x4055	2.166
34	0x4601	6.004
35	0x44b0	4.688
36	0x43ad	3.838
37	0x4670	6.438
38	0x424d	3.15
39	0x3b60	0.922
40	0x4093	2.287
41	0x43c2	3.879
42	0x3df3	1.487
43	0x4280	3.25
44	0x420a	3.02
45	0x4097	2.295
46	0x4406	4.023
47	0x440e	4.055
48	0x38d3	0.603
49	0x3e6e	1.607
50	0x3bf3	0.9937
51	0x40c0	2.375
52	0x3dbc	1.434
53	0x3dc8	1.445
54	0x443e	4.242
55	0x4285	3.26
56	0x3e32	1.549
57	0x444d	4.3
58	0x357e	0.3433
59	0x4307	3.514
60	0x4223	3.068
61	0x457d	5.49
62	0x48b2	9.39
63	0x4601	6.004

con1.dst.mem_param f2 [64]
0	0x3b8d	0.944
1	0x41c3	2.88
2	0x46bb	6.73
3	0x418c	2.773
4	0x392d	0.647
5	0x4081	2.252
6	0x4474	4.453
7	0x3e45	1.567
8	0x4676	6.46
9	0x3dc4	1.441
10	0x3cc5	1.192
11	0x3c3c	1.059
12	0x3c24	1.035
13	0x400a	2.02
14	0x4096	2.293
15	0x4460	4.375
16	0x3d80	1.375
17	0x40c7	2.389
18	0x4369	3.705
19	0x40bb	2.365
20	0xb00c	-0.1265
21	0x3cb7	1.179
22	0xb876	-0.5576
23	0x408b	2.271
24	0x3ba0	0.953
25	0x44b4	4.703
26	0x3514	0.3174
27	0x40df	2.436
28	0x44a3	4.637
29	0x4214	3.04
30	0x4402	4.008
31	0x3e39	1.556
32	0x4041	2.127
33	0xb833	-0.525
34	0x43c5	3.885
35	0xbd41	-1.313
36	0x3cba	1.182
37	0x40cc	2.398
38	0x3c7c	1.121
39	0x3543	0.3289
40	0x4033	2.1
41	0x3ccd	1.2
42	0x42e0	3.438
43	0x3842	0.532
44	0x38bf	0.5933
45	0x3993	0.697
46	0x406c	2.21
47	0x4454	4.33
48	0x47a3	7.637
49	0x4145	2.635
50	0x46c3	6.76
51	0x351f	0.32
52	0x4838	8.44
53	0x4087	2.264
54	0x4227	3.076
55	0x3ac4	0.8457
56	0x42f0	3.469
57	0x4005	2.01
58	0x3cd0	1.203
59	0x3e1b	1.526
60	0x4003	2.006
61	0x4245	3.135
62	0x44dc	4.86
63	0x4183	2.756

con1.dst.syn_param f2 [64]
0	0x411f	2.56
1	0x442e	4.18
2	0x481a	8.2
3	0x42c2	3.379
4	0x450a	5.04
5	0x44f1	4.94
6	0x40eb	2.459
7	0x4133	2.6
8	0x3c72	1.111
9	0x4457	4.34
10	0x4403	4.01
11	0x3dd9	1.462
12	0x4485	4.52
13	0x42de	3.434
14	0x40c6	2.387
15	0x461a	6.1
16	0x4482	4.508
17	0x405c	2.18
18	0x42bf	3.373
19	0x4509	5.035
20	0x41a4	2.82
21	0x4557	5.34
22	0x4659	6.348
23	0x4707	7.027
24	0x42f6	3.48
25	0x446b	4.418
26	0x4124	2.57
27	0x412f	2.592
28	0x427f	3.248
29	0x4246	3.137
30	0x45a3	5.637
31	0x44a5	4.645
32	0x4876	8.92
33	0x4055	2.166
34	0x4601	6.004
35	0x44b0	4.688
36	0x43ad	3.838
37	0x4670	6.438
38	0x424d	3.15
39	0x3b60	0.922
40	0x4093	2.287
41	0x43c2	3.879
42	0x3df3	1.487
43	0x4280	3.25
44	0x420a	3.02
45	0x4097	2.295
46	0x4406	4.023
47	0x440e	4.055
48	0x38d3	0.603
49	0x3e6e	1.607
50	0x3bf3	0.9937
51	0x40c0	2.375
52	0x3dbc	1.434
53	0x3dc8	1.445
54	0x443e	4.242
55	0x4285	3.26
56	0x3e32	1.549
57	0x444d	4.3
58	0x357e	0.3433
59	0x4307	3.514
60	0x4223	3.068
61	0x457d	5.49
62	0x48b2	9.39
63	0x4601	6.004

con1.op.weight f2 [64, 96]
0	0x2d52	0.0831
1	0x304e	0.1345
2	0x2fff	0.12494
3	0x31be	0.1794
4	0x3265	0.1998
5	0xb613	-0.3796
6	0x20ea	0.0096
7	0xac48	-0.0669
8	0x3821	0.516
9	0x178c	0.0018425
10	0xafc2	-0.1212
11	0x2aeb	0.05405
12	0x2d43	0.0822
13	0x2eec	0.10815
14	0xb178	-0.1709
15	0xb2cc	-0.2124
16	0xb083	-0.141
17	0x212b	0.01009
18	0x2179	0.01069
19	0x3438	0.2637
20	0xa5b8	-0.02234
21	0xad2b	-0.08075
22	0xb04e	-0.1345
23	0x1ccc	0.004684
24	0x2efd	0.1092
25	0xaab1	-0.05228
26	0x34e3	0.3054
27	0xa573	-0.02129
28	0xa71f	-0.02782
29	0x9ad2	-0.00333
30	0xb637	-0.3884
31	0x309e	0.1443
32	0x2927	0.04025
33	0x3441	0.2659
34	0xb209	-0.1886
35	0x3565	0.3372
36	0x2f13	0.11053
37	0xb43e	-0.2651
38	0x1ef1	0.00678
39	0x2459	0.01698
40	0x3124	0.1606
41	0x2b5e	0.05756
42	0xa470	-0.01733
43	0x312f	0.162
44	0x249f	0.01805
45	0x2d1a	0.0797
46	0x357f	0.3435
47	0x3449	0.2678
48	0x3294	0.2056
49	0x2d50	0.083
50	0xaa40	-0.04883
51	0x2d65	0.0843
52	0x2826	0.0324
53	0xb113	-0.1586
54	0x2dc5	0.09015
55	0xb032	-0.1311
56	0x28d0	0.0376
57	0x2c3d	0.0662
58	0x30c5	0.149
59	0xb249	-0.1964
60	0xaf5c	-0.115
61	0x2fce	0.12195
62	0x2f48	0.1138
63	0x2c35	0.06573
64	0xafa6	-0.1195
65	0xacbc	-0.074
66	0x314c	0.1655
67	0x9812	-0.001987
68	0x2e6b	0.1003
69	0x33e6	0.2468
70	0xb274	-0.2017
71	0x23f1	0.01551
72	0x2cfb	0.0778
73	0xab30	-0.05615
74	0xb1f0	-0.1855
75	0xaf80	-0.1172
76	0x3481	0.2815
77	0xa5d9	-0.02284
78	0xaf4d	-0.1141
79	0x2357	0.014336
80	0x3084	0.1411
81	0xa4f0	-0.01929
82	0xab4b	-0.05698
83	0xadb8	-0.08936
84	0x319a	0.175
85	0xa125	-0.01005
86	0xb04a	-0.134
87	0xb110	-0.1582
88	0x291f	0.04
89	0x2fab	0.1198
90	0xb559	-0.3342
91	0x3080	0.1406
92	0x260b	0.0236
93	0x2e3a	0.0973
94	0xa6f0	-0.0271
95	0x32bf	0.2108
96	0x2b92	0.05914
97	0x2d28	0.08057
98	0x2836	0.0329
99	0x2e6f	0.1005
100	0x32dc	0.2144
101	0x3978	0.6836
102	0x263e	0.02438
103	0x3028	0.1299
104	0x34f4	0.3096
105	0xb026	-0.1296
106	0x311c	0.1597
107	0x3a2b	0.771
108	0xae08	-0.09424
109	0xb7f3	-0.4968
110	0x3350	0.2285
111	0xb4b6	-0.2944
112	0x31cf	0.1815
113	0xb8a0	-0.578
114	0xb364	-0.231
115	0x341e	0.2573
116	0x3663	0.3992
117	0xb24d	-0.1969
118	0x35fe	0.3745
119	0x3661	0.3987
120	0x3b0e	0.882
121	0x368f	0.41
122	0xacad	-0.07306
123	0xb19d	-0.1754
124	0xa6bb	-0.02629
125	0x3011	0.1271
126	0x37b6	0.482
127	0xa7a7	-0.02989
128	0xb9ce	-0.7256
129	0x195c	0.002617
130	0xb24f	-0.1971
131	0x2c59	0.06793
132	0xb864	-0.549
133	0x37f1	0.4963
134	0xb597	-0.3494
135	0xad3b	-0.0817
136	0xb04b	-0.1342
137	0xb188	-0.1729
138	0xbba6	-0.956
139	0x38dd	0.608
140	0x2d88	0.0864
141	0x3499	0.2874
142	0x395c	0.67
143	0x9230	-0.0007553
144	0x3452	0.27
145	0x3129	0.1613
146	0x344d	0.2688
147	0xb41d	-0.257
148	0x2399	0.01484
149	0x3256	0.198
150	0xb6f6	-0.435
151	0xb313	-0.2211
152	0xb8f7	-0.6206
153	0x2831	0.03275
154	0x3649	0.3928
155	0x3490	0.2852
156	0xb1aa	-0.177
157	0x3561	0.3362
158	0xb490	-0.2852
159	0xb110	-0.1582
160	0x3837	0.527
161	0x3509	0.3147
162	0x2f00	0.1094
163	0x3362	0.2307
164	0x2482	0.01761
165	0xb7fa	-0.4985
166	0x333b	0.226
167	0x2d19	0.07965
168	0xac45	-0.0667
169	0x9b4c	-0.003563
170	0xb2d1	-0.213
171	0xae5b	-0.0993
172	0x341f	0.2576
173	0xb737	-0.451
174	0xa919	-0.03983
175	0xb7ec	-0.495
176	0xb6a5	-0.4153
177	0x2eee	0.1083
178	0xb05e	-0.1365
179	0xb460	-0.2734
180	0xaf26	-0.1117
181	0xb5c0	-0.3594
182	0xa8f4	-0.0387
183	0xb936	-0.6514
184	0x3349	0.2277
185	0x303a	0.1321
186	0xb0f0	-0.1543
187	0x30e4	0.1528
188	0xaf11	-0.1104
189	0xb126	-0.1609
190	0x35d5	0.3645
191	0x3408	0.252
192	0xb462	-0.274
193	0x3428	0.2598
194	0x2fc4	0.12134
195	0xad03	-0.0783
196	0x33fc	0.2495
197	0x994e	-0.00259
198	0x9ca0	-0.004517
199	0x2fc9	0.12164
200	0x2d61	0.08405
201	0x2863	0.03427
202	0x32ae	0.2087
203	0x366a	0.401
204	0x35a4	0.3525
205	0x3315	0.2213
206	0x311e	0.1599
207	0x3315	0.2213
208	0x33aa	0.2395
209	0xb1c2	-0.1799
210	0xa89d	-0.03604
211	0xb895	-0.5728
212	0xb16d	-0.1696
213	0xb5ef	-0.3708
214	0x2da3	0.0881
215	0xb17c	-0.1714
216	0xb415	-0.2551
217	0xb0e7	-0.1532
218	0x3439	0.264
219	0xacbb	-0.0739
220	0x2c27	0.0649
221	0x2248	0.01227
222	0x32bb	0.2103
223	0xaeec	-0.10815
224	0x31b2	0.178
225	0x329d	0.2067
226	0x312e	0.1619
227	0xb404	-0.251
228	0x31e8	0.1846
229	0x25d0	0.0227
230	0xae29	-0.09625
231	0x2c87	0.07074
232	0xa5f2	-0.02322
233	0x3796	0.474
234	0x2241	0.012215
235	0x24ef	0.01927
236	0x2ed3	0.1066
237	0x2c9a	0.0719
238	0x35a1	0.3518
239	0x35d3	0.364
240	0x32a7	0.2079
241	0x9e93	-0.00642
242	0x350a	0.315
243	0xa4a4	-0.01813
244	0xb300	-0.2188
245	0x31a1	0.1759
246	0xb390	-0.2363
247	0x173a	0.001764
248	0x32eb	0.2162
249	0x2a82	0.05084
250	0xa8c5	-0.03726
251	0x3002	0.1252
252	0xb412	-0.2544
253	0x283f	0.03317
254	0x2e7d	0.1014
255	0x32da	0.2141

con2.src.mem_param f2 [64]
0	0x3b8d	0.944
1	0x41c3	2.88
2	0x46bb	6.73
3	0x418c	2.773
4	0x392d	0.647
5	0x4081	2.252
6	0x4474	4.453
7	0x3e45	1.567
8	0x4676	6.46
9	0x3dc4	1.441
10	0x3cc5	1.192
11	0x3c3c	1.059
12	0x3c24	1.035
13	0x400a	2.02
14	0x4096	2.293
15	0x4460	4.375
16	0x3d80	1.375
17	0x40c7	2.389
18	0x4369	3.705
19	0x40bb	2.365
20	0xb00c	-0.1265
21	0x3cb7	1.179
22	0xb876	-0.5576
23	0x408b	2.271
24	0x3ba0	0.953
25	0x44b4	4.703
26	0x3514	0.3174
27	0x40df	2.436
28	0x44a3	4.637
29	0x4214	3.04
30	0x4402	4.008
31	0x3e39	1.556
32	0x4041	2.127
33	0xb833	-0.525
34	0x43c5	3.885
35	0xbd41	-1.313
36	0x3cba	1.182
37	0x40cc	2.398
38	0x3c7c	1.121
39	0x3543	0.3289
40	0x4033	2.1
41	0x3ccd	1.2
42	0x42e0	3.438
43	0x3842	0.532
44	0x38bf	0.5933
45	0x3993	0.697
46	0x406c	2.21
47	0x4454	4.33
48	0x47a3	7.637
49	0x4145	2.635
50	0x46c3	6.76
51	0x351f	0.32
52	0x4838	8.44
53	0x4087	2.264
54	0x4227	3.076
55	0x3ac4	0.8457
56	0x42f0	3.469
57	0x4005	2.01
58	0x3cd0	1.203
59	0x3e1b	1.526
60	0x4003	2.006
61	0x4245	3.135
62	0x44dc	4.86
63	0x4183	2.756

con2.src.syn_param f2 [64]
0	0x411f	2.56
1	0x442e	4.18
2	0x481a	8.2
3	0x42c2	3.379
4	0x450a	5.04
5	0x44f1	4.94
6	0x40eb	2.459
7	0x4133	2.6
8	0x3c72	1.111
9	0x4457	4.34
10	0x4403	4.01
11	0x3dd9	1.462
12	0x4485	4.52
13	0x42de	3.434
14	0x40c6	2.387
15	0x461a	6.1
16	0x4482	4.508
17	0x405c	2.18
18	0x42bf	3.373
19	0x4509	5.035
20	0x41a4	2.82
21	0x4557	5.34
22	0x4659	6.348
23	0x4707	7.027
24	0x42f6	3.48
25	0x446b	4.418
26	0x4124	2.57
27	0x412f	2.592
28	0x427f	3.248
29	0x4246	3.137
30	0x45a3	5.637
31	0x44a5	4.645
32	0x4876	8.92
33	0x4055	2.166
34	0x4601	6.004
35	0x44b0	4.688
36	0x43ad	3.838
37	0x4670	6.438
38	0x424d	3.15
39	0x3b60	0.922
40	0x4093	2.287
41	0x43c2	3.879
42	0x3df3	1.487
43	0x4280	3.25
44	0x420a	3.02
45	0x4097	2.295
46	0x4406	4.023
47	0x440e	4.055
48	0x38d3	0.603
49	0x3e6e	1.607
50	0x3bf3	0.9937
51	0x40c0	2.375
52	0x3dbc	1.434
53	0x3dc8	1.445
54	0x443e	4.242
55	0x4285	3.26
56	0x3e32	1.549
57	0x444d	4.3
58	0x357e	0.3433
59	0x4307	3.514
60	0x4223	3.068
61	0x457d	5.49
62	0x48b2	9.39
63	0x4601	6.004

con2.dst.mem_param f2 [64]
0	0x3b8d	0.944
1	0x41c3	2.88
2	0x46bb	6.73
3	0x418c	2.773
4	0x392d	0.647
5	0x4081	2.252
6	0x4474	4.453
7	0x3e45	1.567
8	0x4676	6.46
9	0x3dc4	1.441
10	0x3cc5	1.192
11	0x3c3c	1.059
12	0x3c24	1.035
13	0x400a	2.02
14	0x4096	2.293
15	0x4460	4.375
16	0x3d80	1.375
17	0x40c7	2.389
18	0x4369	3.705
19	0x40bb	2.365
20	0xb00c	-0.1265
21	0x3cb7	1.179
22	0xb876	-0.5576
23	0x408b	2.271
24	0x3ba0	0.953
25	0x44b4	4.703
26	0x3514	0.3174
27	0x40df	2.436
28	0x44a3	4.637
29	0x4214	3.04
30	0x4402	4.008
31	0x3e39	1.556
32	0x4041	2.127
33	0xb833	-0.525
34	0x43c5	3.885
35	0xbd41	-1.313
36	0x3cba	1.182
37	0x40cc	2.398
38	0x3c7c	1.121
39	0x3543	0.3289
40	0x4033	2.1
41	0x3ccd	1.2
42	0x42e0	3.438
43	0x3842	0.532
44	0x38bf	0.5933
45	0x3993	0.697
46	0x406c	2.21
47	0x4454	4.33
48	0x47a3	7.637
49	0x4145	2.635
50	0x46c3	6.76
51	0x351f	0.32
52	0x4838	8.44
53	0x4087	2.264
54	0x4227	3.076
55	0x3ac4	0.8457
56	0x42f0	3.469
57	0x4005	2.01
58	0x3cd0	1.203
59	0x3e1b	1.526
60	0x4003	2.006
61	0x4245	3.135
62	0x44dc	4.86
63	0x4183	2.756

con2.dst.syn_param f2 [64]
0	0x411f	2.56
1	0x442e	4.18
2	0x481a	8.2
3	0x42c2	3.379
4	0x450a	5.04
5	0x44f1	4.94
6	0x40eb	2.459
7	0x4133	2.6
8	0x3c72	1.111
9	0x4457	4.34
10	0x4403	4.01
11	0x3dd9	1.462
12	0x4485	4.52
13	0x42de	3.434
14	0x40c6	2.387
15	0x461a	6.1
16	0x4482	4.508
17	0x405c	2.18
18	0x42bf	3.373
19	0x4509	5.035
20	0x41a4	2.82
21	0x4557	5.34
22	0x4659	6.348
23	0x4707	7.027
24	0x42f6	3.48
25	0x446b	4.418
26	0x4124	2.57
27	0x412f	2.592
28	0x427f	3.248
29	0x4246	3.137
30	0x45a3	5.637
31	0x44a5	4.645
32	0x4876	8.92
33	0x4055	2.166
34	0x4601	6.004
35	0x44b0	4.688
36	0x43ad	3.838
37	0x4670	6.438
38	0x424d	3.15
39	0x3b60	0.922
40	0x4093	2.287
41	0x43c2	3.879
42	0x3df3	1.487
43	0x4280	3.25
44	0x420a	3.02
45	0x4097	2.295
46	0x4406	4.023
47	0x440e	4.055
48	0x38d3	0.603
49	0x3e6e	1.607
50	0x3bf3	0.9937
51	0x40c0	2.375
52	0x3dbc	1.434
53	0x3dc8	1.445
54	0x443e	4.242
55	0x4285	3.26
56	0x3e32	1.549
57	0x444d	4.3
58	0x357e	0.3433
59	0x4307	3.514
60	0x4223	3.068
61	0x457d	5.49
62	0x48b2	9.39
63	0x4601	6.004

con2.op.weight f2 [64, 64]
0	0xb461	-0.2737
1	0xb225	-0.192
2	0xb4e7	-0.3064
3	0x3718	0.4434
4	0x18c1	0.002321
5	0x34f8	0.3105
6	0xb291	-0.2052
7	0xacf2	-0.0773
8	0xaeb5	-0.1048
9	0xb3d8	-0.2451
10	0x319b	0.1752
11	0xac54	-0.0676
12	0xb481	-0.2815
13	0x3769	0.4631
14	0xb11f	-0.16
15	0xa36e	-0.01451
16	0xa998	-0.0437
17	0xa987	-0.04318
18	0xb2a2	-0.2073
19	0x39eb	0.7397
20	0xb90c	-0.631
21	0x3578	0.3418
22	0xaaa3	-0.05185
23	0xb8ff	-0.6245
24	0xaae0	-0.0537
25	0xb05b	-0.1361
26	0x29cb	0.04526
27	0x3471	0.2776
28	0xb5f6	-0.3726
29	0x34c3	0.2976
30	0xb1ec	-0.185
31	0xafc6	-0.12146
32	0xb48b	-0.284
33	0xb02c	-0.1304
34	0xb60b	-0.3777
35	0xa58f	-0.02171
36	0xafbe	-0.121
37	0xb016	-0.1277
38	0x362a	0.3853
39	0xb74d	-0.4563
40	0x33c9	0.2433
41	0x3240	0.1953
42	0xafc7	-0.1215
43	0x2fc0	0.1211
44	0x342e	0.2612
45	0x2bf9	0.0623
46	0xa10f	-0.00988
47	0x3431	0.262
48	0xb2ed	-0.2164
49	0xb8c5	-0.596
50	0xb53a	-0.3267
51	0x1f1a	0.006935
52	0xb72b	-0.448
53	0xb845	-0.5337
54	0xb503	-0.3132
55	0xb9ca	-0.7236
56	0x2bf3	0.0621
57	0xaec6	-0.10583
58	0x2929	0.0403
59	0xb45c	-0.2725
60	0xb3f0	-0.248
61	0x325d	0.1989
62	0x3833	0.525
63	0x3c17	1.022
64	0x9c34	-0.004105
65	0xbf57	-1.835
66	0xb4a9	-0.2913
67	0xb754	-0.458
68	0xb6a7	-0.4158
69	0x32ce	0.2126
70	0xba11	-0.7583
71	0xb978	-0.6836
72	0xba42	-0.782
73	0x2a2c	0.04822
74	0xb9b6	-0.714
75	0xbad9	-0.856
76	0xbafe	-0.874
77	0xa938	-0.04077
78	0xa4d6	-0.01889
79	0x341b	0.2566
80	0x3772	0.4653
81	0x384e	0.538
82	0x3bbe	0.968
83	0xa08c	-0.00888
84	0xb882	-0.5635
85	0xb536	-0.3257
86	0x3257	0.1981
87	0x3bc4	0.9707
88	0x30a4	0.145
89	0xbafe	-0.874
90	0xb06c	-0.1382
91	0x2c61	0.0684
92	0xb98d	-0.694
93	0x35b4	0.3564
94	0xb2af	-0.2089
95	0x32c9	0.212
96	0xb779	-0.467
97	0xbf41	-1.813
98	0x2f18	0.11084
99	0xb8a3	-0.5796
100	0xa6e1	-0.02687
101	0x3610	0.379
102	0x3478	0.2793
103	0xbd82	-1.377
104	0x3605	0.3762
105	0x38f3	0.6187
106	0xb77a	-0.4673
107	0x3243	0.1957
108	0x36c0	0.4219
109	0xb2ad	-0.2086
110	0xb63b	-0.3894
111	0x2dfc	0.0935
112	0xbd55	-1.333
113	0x36a7	0.4158
114	0xba0c	-0.756
115	0xaf64	-0.1155
116	0x310b	0.1576
117	0xb7ec	-0.495
118	0xba18	-0.7617
119	0x3062	0.137
120	0x31c6	0.1804
121	0x3818	0.5117
122	0xbf8a	-1.885
123	0x2cc8	0.0747
124	0xad8d	-0.08673
125	0x3e21	1.532
126	0x37ac	0.4795
127	0x2a31	0.04837
128	0xb81e	-0.5146
129	0xb865	-0.5493
130	0xbb24	-0.8926
131	0xb4c2	-0.2974
132	0xb7cf	-0.488
133	0xb9d2	-0.7275
134	0xadf3	-0.09296
135	0xb6dd	-0.429
136	0xb62a	-0.3853
137	0x3127	0.161
138	0xb220	-0.1914
139	0x34a1	0.2893
140	0x38b0	0.586
141	0xb81c	-0.5137
142	0xb630	-0.3867
143	0xb9b3	-0.7124
144	0xac83	-0.0705
145	0xb71c	-0.4443
146	0x271e	0.0278
147	0xbc8c	-1.137
148	0x2e74	0.1008
149	0x35d8	0.3652
150	0xb8b6	-0.589
151	0x3bd3	0.978
152	0xb160	-0.168
153	0x3c3c	1.059
154	0x3582	0.3442
155	0xbdf3	-1.487
156	0x29b1	0.04446
157	0x33ce	0.2439
158	0xb8a5	-0.5806
159	0xbd05	-1.255
160	0x38be	0.593
161	0xb0dc	-0.1519
162	0x38d1	0.602
163	0x3952	0.665
164	0x380f	0.5073
165	0x387a	0.5596
166	0xaf86	-0.11755
167	0xae5c	-0.09937
168	0xba95	-0.8228
169	0xb41d	-0.257
170	0x2f0b	0.11005
171	0x26cf	0.0266
172	0xb354	-0.229
173	0x381e	0.5146
174	0x34f6	0.31
175	0xb8e0	-0.6094
176	0x2d03	0.0783
177	0x9ef4	-0.00679
178	0xbc03	-1.003
179	0x33a2	0.2385
180	0xac76	-0.0697
181	0x2f2c	0.11206
182	0x3b20	0.8906
183	0xb503	-0.3132
184	0xba6e	-0.8037
185	0x30eb	0.1537
186	0x328b	0.2045
187	0x35b0	0.3555
188	0x3298	0.206
189	0x3920	0.6406
190	0x30df	0.1522
191	0xba73	-0.806
192	0xafaf	-0.12006
193	0x37bb	0.4832
194	0xb2ba	-0.2102
195	0xbc90	-1.141
196	0x378d	0.472
197	0xb399	-0.2374
198	0xb3e9	-0.2472
199	0x2bb6	0.06024
200	0x3614	0.38
201	0x37e7	0.494
202	0xb514	-0.3174
203	0xb895	-0.5728
204	0xb81e	-0.5146
205	0x30b3	0.1469
206	0xadfa	-0.0934
207	0xb740	-0.4531
208	0x2c69	0.0689
209	0x33df	0.246
210	0x395e	0.671
211	0x34cc	0.2998
212	0xbe70	-1.609
213	0x31e3	0.184
214	0x38cf	0.601
215	0x327e	0.2029
216	0xb52f	-0.324
217	0xabe6	-0.0617
218	0xb66a	-0.401
219	0x3815	0.5103
220	0xb721	-0.4456
221	0x2530	0.02026
222	0xb5d1	-0.3635
223	0xb5b6	-0.357
224	0xb84a	-0.536
225	0xb459	-0.2717
226	0xb1bb	-0.1791
227	0xc190	-2.781
228	0x29aa	0.04425
229	0x34c8	0.2988
230	0xadd8	-0.0913
231	0xba25	-0.768
232	0x2ed0	0.10645
233	0x1663	0.001559
234	0x30bc	0.148
235	0xa38f	-0.01476
236	0x3637	0.3884
237	0xb688	-0.4082
238	0x303f	0.1327
239	0x3822	0.5166
240	0x3341	0.2267
241	0xb918	-0.6367
242	0xb345	-0.2272
243	0xb907	-0.6284
244	0x2da1	0.08795
245	0xb964	-0.674
246	0xb77e	-0.4683
247	0xb58b	-0.3464
248	0xb8a1	-0.5786
249	0x322c	0.1929
250	0xba89	-0.817
251	0xac85	-0.0706
252	0xb596	-0.349
253	0x3961	0.6724
254	0x3184	0.1724
255	0xb370	-0.2324

con3.src.mem_param f2 [64]
0	0x3b8d	0.944
1	0x41c3	2.88
2	0x46bb	6.73
3	0x418c	2.773
4	0x392d	0.647
5	0x4081	2.252
6	0x4474	4.453
7	0x3e45	1.567
8	0x4676	6.46
9	0x3dc4	1.441
10	0x3cc5	1.192
11	0x3c3c	1.059
12	0x3c24	1.035
13	0x400a	2.02
14	0x4096	2.293
15	0x4460	4.375
16	0x3d80	1.375
17	0x40c7	2.389
18	0x4369	3.705
19	0x40bb	2.365
20	0xb00c	-0.1265
21	0x3cb7	1.179
22	0xb876	-0.5576
23	0x408b	2.271
24	0x3ba0	0.953
25	0x44b4	4.703
26	0x3514	0.3174
27	0x40df	2.436
28	0x44a3	4.637
29	0x4214	3.04
30	0x4402	4.008
31	0x3e39	1.556
32	0x4041	2.127
33	0xb833	-0.525
34	0x43c5	3.885
35	0xbd41	-1.313
36	0x3cba	1.182
37	0x40cc	2.398
38	0x3c7c	1.121
39	0x3543	0.3289
40	0x4033	2.1
41	0x3ccd	1.2
42	0x42e0	3.438
43	0x3842	0.532
44	0x38bf	0.5933
45	0x3993	0.697
46	0x406c	2.21
47	0x4454	4.33
48	0x47a3	7.637
49	0x4145	2.635
50	0x46c3	6.76
51	0x351f	0.32
52	0x4838	8.44
53	0x4087	2.264
54	0x4227	3.076
55	0x3ac4	0.8457
56	0x42f0	3.469
57	0x4005	2.01
58	0x3cd0	1.203
59	0x3e1b	1.526
60	0x4003	2.006
61	0x4245	3.135
62	0x44dc	4.86
63	0x4183	2.756

con3.src.syn_param f2 [64]
0	0x411f	2.56
1	0x442e	4.18
2	0x481a	8.2
3	0x42c2	3.379
4	0x450a	5.04
5	0x44f1	4.94
6	0x40eb	2.459
7	0x4133	2.6
8	0x3c72	1.111
9	0x4457	4.34
10	0x4403	4.01
11	0x3dd9	1.462
12	0x4485	4.52
13	0x42de	3.434
14	0x40c6	2.387
15	0x461a	6.1
16	0x4482	4.508
17	0x405c	2.18
18	0x42bf	3.373
19	0x4509	5.035
20	0x41a4	2.82
21	0x4557	5.34
22	0x4659	6.348
23	0x4707	7.027
24	0x42f6	3.48
25	0x446b	4.418
26	0x4124	2.57
27	0x412f	2.592
28	0x427f	3.248
29	0x4246	3.137
30	0x45a3	5.637
31	0x44a5	4.645
32	0x4876	8.92
33	0x4055	2.166
34	0x4601	6.004
35	0x44b0	4.688
36	0x43ad	3.838
37	0x4670	6.438
38	0x424d	3.15
39	0x3b60	0.922
40	0x4093	2.287
41	0x43c2	3.879
42	0x3df3	1.487
43	0x4280	3.25
44	0x420a	3.02
45	0x4097	2.295
46	0x4406	4.023
47	0x440e	4.055
48	0x38d3	0.603
49	0x3e6e	1.607
50	0x3bf3	0.9937
51	0x40c0	2.375
52	0x3dbc	1.434
53	0x3dc8	1.445
54	0x443e	4.242
55	0x4285	3.26
56	0x3e32	1.549
57	0x444d	4.3
58	0x357e	0.3433
59	0x4307	3.514
60	0x4223	3.068
61	0x457d	5.49
62	0x48b2	9.39
63	0x4601	6.004

con3.op.weight f2 [2, 64]
0	0x1af6	0.003399
1	0x2a3f	0.0488
2	0xa8de	-0.03802
3	0x2c16	0.06384
4	0x325d	0.1989
5	0x2b56	0.0573
6	0x2032	0.008194
7	0xa4cb	-0.01872
8	0x2973	0.04257
9	0x12e1	0.0008397
10	0xaad6	-0.0534
11	0x268d	0.02559
12	0xb16c	-0.1694
13	0x24e2	0.01907
14	0xad62	-0.0841
15	0xa745	-0.0284
16	0x2ea7	0.10394
17	0x2a1b	0.0477
18	0xa781	-0.02931
19	0x2914	0.03967
20	0xac60	-0.06836
21	0x2c95	0.0716
22	0xb3ba	-0.2415
23	0x248b	0.01775
24	0xade2	-0.0919
25	0xa871	-0.0347
26	0x2c5b	0.06805
27	0xac7d	-0.0701
28	0x90d7	-0.000591
29	0x9d09	-0.004917
30	0x2caa	0.0729
31	0xa985	-0.04312
32	0xa56d	-0.0212
33	0x32b6	0.2097
34	0x20f0	0.00964
35	0x3073	0.139
36	0xaf2e	-0.1122
37	0xaec0	-0.10547
38	0x2c39	0.066
39	0xab0f	-0.05515
40	0xad5e	-0.08386
41	0x2df1	0.09283
42	0x257a	0.0214
43	0x3194	0.1743
44	0xae0e	-0.0946
45	0x2951	0.04153
46	0xa824	-0.03235
47	0x9436	-0.001028
48	0x2613	0.02373
49	0x2268	0.01251
50	0x2246	0.01225
51	0x309f	0.1444
52	0xa608	-0.02356
53	0xae58	-0.0991
54	0xa4a5	-0.01814
55	0xabee	-0.06195
56	0x2824	0.03235
57	0xaf92	-0.1183
58	0x2d81	0.086
59	0xb01d	-0.1285
60	0x2931	0.04056
61	0xabc2	-0.0606
62	0x2e0a	0.09436
63	0x2ec8	0.10596
64	0x9af1	-0.00339
65	0x2c09	0.06305
66	0x959f	-0.001372
67	0x2e2e	0.09656
68	0xb503	-0.3132
69	0xa179	-0.01069
70	0x28af	0.0366
71	0x29e7	0.0461
72	0xa4ea	-0.0192
73	0xad82	-0.08606
74	0x31d7	0.1825
75	0x2909	0.03934
76	0x33b7	0.2411
77	0x9921	-0.002504
78	0x2c18	0.06396
79	0x2c95	0.0716
80	0xab86	-0.05878
81	0xb089	-0.1417
82	0xaf1e	-0.1112
83	0x2abb	0.05258
84	0xb07d	-0.1403
85	0xabe0	-0.06152
86	0xae96	-0.1029
87	0xb083	-0.141
88	0x1e3c	0.00609
89	0x283e	0.03314
90	0xa917	-0.03976
91	0xac06	-0.06287
92	0x2529	0.02016
93	0x1a7b	0.003164
94	0xa9bf	-0.0449
95	0xa8e1	-0.03812
96	0x2c9d	0.0721
97	0x2c61	0.0684
98	0x2bc1	0.06058
99	0x348b	0.284
100	0x1cb2	0.004585
101	0xaa42	-0.0489
102	0x1ef4	0.00679
103	0xa9fa	-0.0467
104	0x0ec0	0.000412
105	0xac8a	-0.0709
106	0xace0	-0.0762
107	0xae5e	-0.0995
108	0x2956	0.0417
109	0x97d1	-0.001908
110	0x2d1a	0.0797
111	0x208f	0.0089
112	0x9fad	-0.007496
113	0xa04c	-0.00839
114	0x28a0	0.03613
115	0xad8b	-0.0866
116	0x2267	0.012505
117	0x2bb9	0.06033
118	0x29f3	0.04648
119	0xa96d	-0.0424
120	0x25a0	0.02197
121	0x1cfc	0.004868
122	0x285e	0.03412
123	0x2def	0.0927
124	0x2af2	0.05426
125	0x24ea	0.0192
126	0x1461	0.001069
127	0x2b18	0.05542
