notebooks/temp_model/loco03/baselineRSNN-True.pth (torch, 38355 bytes, 13 tensors)

group2.mem_param f2 [64]
00000000: 883c 2741 8d44 5243 1340 8245 3442 4d3e
00000010: 7547 9f43 1344 f63c d447 a33c 803f d83c
00000020: 113f 9a47 fa3d 5e42 872c 4d48 52be 0342
00000030: 8744 3c3d 8e3e 98bd db46 473b 5e42 5645
00000040: ff41 683e d543 0243 1c44 ac46 a1b8 7f42
00000050: 413b eb3b a838 0a3c f93f 2c41 ee42 1a40
00000060: 9a3d 873f 5d36 3a38 853b 5447 2244 f043
00000070: b1bc 9e3e a739 a743 1a48 793b 8343 0c41
1.133 2.576 4.55 3.66 2.037 5.508 3.102 1.575
7.457 3.81 4.074 1.24 7.83 1.159 1.875 1.211
1.767 7.6 1.494 3.184 0.07074 8.6 -1.58 3.006
4.527 1.309 1.639 -1.398 6.855 0.9097 3.184 5.336
2.998 1.602 3.916 3.504 4.11 6.67 -0.5786 3.248
0.9067 0.9897 0.582 1.01 1.993 2.586 3.465 2.05
1.4 1.882 0.3977 0.5283 0.94 7.33 4.133 3.969
-1.173 1.654 0.7065 3.826 8.2 0.934 3.756 2.523

group2.syn_param f2 [64]
00000000: 423c 2136 c33d 5144 6639 d235 3039 e13c
00000010: 0b31 1140 d347 443f 8f30 ae3c b83b 9aac
00000020: 0344 9535 2f37 b143 163f f230 0d3c 0041
00000030: b43c 1f42 d244 dc36 212b 543f 6d45 4738
00000040: 2c3c 013d 2b45 e63d f441 1834 3f3c 8041
00000050: ea3a e040 0340 ae40 b143 5c38 2241 c440
00000060: 0840 eb3d 143e 6140 7d3d 0c32 6a35 163c
00000070: f63d 7f3d 2543 933c e435 db31 6745 783f
1.064 0.383 1.44 4.316 0.675 0.3638 0.6484 1.22
0.1576 2.033 7.824 1.816 0.1425 1.17 0.965 -0.0719
4.01 0.3489 0.449 3.846 1.771 0.1545 1.013 2.5
1.176 3.06 4.82 0.4287 0.0557 1.832 5.426 0.5347
1.043 1.251 5.168 1.475 2.977 0.2559 1.062 2.75
0.8643 2.438 2.006 2.34 3.846 0.545 2.566 2.383
2.016 1.4795 1.52 2.19 1.372 0.189 0.3384 1.021
1.49 1.374 3.572 1.144 0.3682 0.183 5.402 1.867

con1.dst.mem_param f2 [64]
00000000: 883c 2741 8d44 5243 1340 8245 3442 4d3e
00000010: 7547 9f43 1344 f63c d447 a33c 803f d83c
00000020: 113f 9a47 fa3d 5e42 872c 4d48 52be 0342
00000030: 8744 3c3d 8e3e 98bd db46 473b 5e42 5645
00000040: ff41 683e d543 0243 1c44 ac46 a1b8 7f42
00000050: 413b eb3b a838 0a3c f93f 2c41 ee42 1a40
00000060: 9a3d 873f 5d36 3a38 853b 5447 2244 f043
00000070: b1bc 9e3e a739 a743 1a48 793b 8343 0c41
1.133 2.576 4.55 3.66 2.037 5.508 3.102 1.575
7.457 3.81 4.074 1.24 7.83 1.159 1.875 1.211
1.767 7.6 1.494 3.184 0.07074 8.6 -1.58 3.006
4.527 1.309 1.639 -1.398 6.855 0.9097 3.184 5.336
2.998 1.602 3.916 3.504 4.11 6.67 -0.5786 3.248
0.9067 0.9897 0.582 1.01 1.993 2.586 3.465 2.05
1.4 1.882 0.3977 0.5283 0.94 7.33 4.133 3.969
-1.173 1.654 0.7065 3.826 8.2 0.934 3.756 2.523

con1.dst.syn_param f2 [64]
00000000: 423c 2136 c33d 5144 6639 d235 3039 e13c
00000010: 0b31 1140 d347 443f 8f30 ae3c b83b 9aac
00000020: 0344 9535 2f37 b143 163f f230 0d3c 0041
00000030: b43c 1f42 d244 dc36 212b 543f 6d45 4738
00000040: 2c3c 013d 2b45 e63d f441 1834 3f3c 8041
00000050: ea3a e040 0340 ae40 b143 5c38 2241 c440
00000060: 0840 eb3d 143e 6140 7d3d 0c32 6a35 163c
00000070: f63d 7f3d 2543 933c e435 db31 6745 783f
1.064 0.383 1.44 4.316 0.675 0.3638 0.6484 1.22
0.1576 2.033 7.824 1.816 0.1425 1.17 0.965 -0.0719
4.01 0.3489 0.449 3.846 1.771 0.1545 1.013 2.5
1.176 3.06 4.82 0.4287 0.0557 1.832 5.426 0.5347
1.043 1.251 5.168 1.475 2.977 0.2559 1.062 2.75
0.8643 2.438 2.006 2.34 3.846 0.545 2.566 2.383
2.016 1.4795 1.52 2.19 1.372 0.189 0.3384 1.021
1.49 1.374 3.572 1.144 0.3682 0.183 5.402 1.867

con1.op.weight f2 [64, 192]
00000000: 70b5 56b4 a6af 3f2d 26ab f429 48b1 c134
00000010: 62a9 5a32 a625 5c99 9b24 b529 da30 f12a
00000020: 7434 7937 2330 4738 24ab 5c2f 772c 4c36
00000030: 1d2f 2ab4 7137 ef26 63ad 35b6 b933 3732
00000040: 79b5 14b1 da2f 28b1 ffb0 60b2 752c d5b2
00000050: 27ae 0930 ff2b 26ab 03a2 ffb7 c8b4 74b5
00000060: 14b4 2eb1 11b5 9e30 83a1 a527 ee2e 86a3
00000070: 5829 6eb4 89a5 282d 46b4 8bb1 31ad dd2c
00000080: ca2d 6035 dd26 bfae 4a18 2bad 6d31 be30
00000090: 6a36 5a1a 6127 202f 2732 dd34 0728 93ae
000000a0: 36b7 fbae 282c 5cb8 822c 5f25 7025 eea3
000000b0: b2b7 242f ef31 0230 2fb7 d1b4 ba2d 0eaf
000000c0: 08b7 5aac 882e 4aa7 8f32 4d2b 0faa 0129
000000d0: 4930 0e35 97a9 992e b1a9 d7ac ffaf c033
000000e0: 4fb0 d82d dab1 19a9 1031 a32c 7e34 2ba9
000000f0: 7bb5 f22e aab8 df1c 442c 33b4 c02d f030
00000100: 212c 6eb2 28a6 2fb4 9130 2d36 472d a5b1
00000110: 7a34 272d a4b7 e72e 6135 8731 c6aa d938
00000120: b52b a6ab 23af feaf 032f 48a7 5b26 b52a
00000130: 31b0 b2ac bfac 9830 8b26 48b7 1327 a42e
00000140: ebad 5225 dc14 562b c827 1eae 2f2d 2ca8
00000150: e5a3 25ac db23 12a9 81ac 5fb2 3637 7534
00000160: c5ad 252e 092c 80b6 c9a4 fe2e d1b7 04b2
00000170: 3336 2bae 50af 5430 182e 1bad b427 69b1
00000180: 932e 4cb0 db2f 1ab4 4e33 0a34 67a5 da15
00000190: 15a5 ca2e 6526 e6a7 052c 6ab0 c42c 1131
000001a0: 70ac 2931 1b29 d830 efaf f131 1fb1 e12f
000001b0: 142c 9aaf b720 6bb3 da24 3432 be30 4336
000001c0: 32ac 61b1 6a30 43b1 dcb4 912e 2328 f2b1
000001d0: 6aad c430 5d30 7435 32ab 37b3 09a9 d72b
000001e0: 13b2 9b2d 62a2 fab1 8435 c7ae fea9 2db2
000001f0: 8333 d3ad 23ad c32f 6dac 1d2c 0d30 052e
-0.3398 -0.271 -0.1195 0.082 -0.05585 0.0465 -0.165 0.297
-0.04205 0.1985 0.02206 -0.002617 0.01799 0.0446 0.1516 0.05423
0.2783 0.467 0.1293 0.5347 -0.0558 0.115 0.06976 0.3936
0.11115 -0.2603 0.465 0.02708 -0.08417 -0.388 0.2413 0.1942
-0.342 -0.1587 0.1227 -0.1611 -0.1561 -0.1992 0.06964 -0.2135
-0.0961 0.1261 0.06247 -0.05585 -0.01174 -0.4998 -0.2988 -0.3408
-0.255 -0.1619 -0.3167 0.1443 -0.010765 0.02986 0.1083 -0.014694
0.04175 -0.2769 -0.02162 0.08057 -0.267 -0.1732 -0.0811 0.076
0.09045 0.336 0.02681 -0.1054 0.002094 -0.08075 0.1696 0.1482
0.401 0.003101 0.02882 0.1113 0.1923 0.304 0.03146 -0.1027
-0.4507 -0.1091 0.06494 -0.545 0.07043 0.02098 0.02124 -0.01549
-0.481 0.1116 0.1854 0.1252 -0.449 -0.301 0.0895 -0.1102
-0.4395 -0.068 0.10205 -0.02847 0.205 0.05704 -0.04733 0.0391
0.1339 0.316 -0.04367 0.1031 -0.04446 -0.0756 -0.12494 0.2422
-0.1346 0.0913 -0.1829 -0.03983 0.1582 0.07245 0.2808 -0.04037
-0.3425 0.1085 -0.583 0.004757 0.06665 -0.2625 0.08984 0.1543
0.0645 -0.2009 -0.02405 -0.2615 0.1427 0.386 0.08246 -0.1764
0.2798 0.0805 -0.4775 0.10785 0.3362 0.1727 -0.05292 0.606
0.0602 -0.05975 -0.1115 -0.1249 0.10956 -0.02844 0.02483 0.0524
-0.131 -0.07336 -0.07416 0.1436 0.02556 -0.455 0.02763 0.10376
-0.09247 0.02078 0.001186 0.0573 0.0304 -0.0956 0.081 -0.0326
-0.01542 -0.06476 0.01534 -0.0396 -0.0704 -0.1991 0.4507 0.2786
-0.09015 0.096 0.06305 -0.4062 -0.01869 0.10925 -0.4885 -0.188
0.3875 -0.0964 -0.11426 0.1353 0.0952 -0.0798 0.03009 -0.1691
0.1027 -0.1343 0.12274 -0.2563 0.2283 0.2524 -0.0211 0.001429
-0.01985 0.1061 0.02498 -0.03085 0.0628 -0.138 0.07446 0.1583
-0.06934 0.1613 0.0399 0.1514 -0.12396 0.1857 -0.16 0.1231
0.0637 -0.1188 0.00921 -0.2318 0.01895 0.1938 0.1482 0.3914
-0.06555 -0.1681 0.138 -0.1644 -0.3037 0.1026 0.03232 -0.1858
-0.0846 0.1489 0.1364 0.3408 -0.0562 -0.2255 -0.03934 0.06125
-0.1898 0.0876 -0.01247 -0.1868 0.3447 -0.1059 -0.0468 -0.193
0.2347 -0.091 -0.08026 0.1213 -0.06915 0.0643 0.1266 0.09406

con2.src.mem_param f2 [64]
00000000: 883c 2741 8d44 5243 1340 8245 3442 4d3e
00000010: 7547 9f43 1344 f63c d447 a33c 803f d83c
00000020: 113f 9a47 fa3d 5e42 872c 4d48 52be 0342
00000030: 8744 3c3d 8e3e 98bd db46 473b 5e42 5645
00000040: ff41 683e d543 0243 1c44 ac46 a1b8 7f42
00000050: 413b eb3b a838 0a3c f93f 2c41 ee42 1a40
00000060: 9a3d 873f 5d36 3a38 853b 5447 2244 f043
00000070: b1bc 9e3e a739 a743 1a48 793b 8343 0c41
1.133 2.576 4.55 3.66 2.037 5.508 3.102 1.575
7.457 3.81 4.074 1.24 7.83 1.159 1.875 1.211
1.767 7.6 1.494 3.184 0.07074 8.6 -1.58 3.006
4.527 1.309 1.639 -1.398 6.855 0.9097 3.184 5.336
2.998 1.602 3.916 3.504 4.11 6.67 -0.5786 3.248
0.9067 0.9897 0.582 1.01 1.993 2.586 3.465 2.05
1.4 1.882 0.3977 0.5283 0.94 7.33 4.133 3.969
-1.173 1.654 0.7065 3.826 8.2 0.934 3.756 2.523

con2.src.syn_param f2 [64]
00000000: 423c 2136 c33d 5144 6639 d235 3039 e13c
00000010: 0b31 1140 d347 443f 8f30 ae3c b83b 9aac
00000020: 0344 9535 2f37 b143 163f f230 0d3c 0041
00000030: b43c 1f42 d244 dc36 212b 543f 6d45 4738
00000040: 2c3c 013d 2b45 e63d f441 1834 3f3c 8041
00000050: ea3a e040 0340 ae40 b143 5c38 2241 c440
00000060: 0840 eb3d 143e 6140 7d3d 0c32 6a35 163c
00000070: f63d 7f3d 2543 933c e435 db31 6745 783f
1.064 0.383 1.44 4.316 0.675 0.3638 0.6484 1.22
0.1576 2.033 7.824 1.816 0.1425 1.17 0.965 -0.0719
4.01 0.3489 0.449 3.846 1.771 0.1545 1.013 2.5
1.176 3.06 4.82 0.4287 0.0557 1.832 5.426 0.5347
1.043 1.251 5.168 1.475 2.977 0.2559 1.062 2.75
0.8643 2.438 2.006 2.34 3.846 0.545 2.566 2.383
2.016 1.4795 1.52 2.19 1.372 0.189 0.3384 1.021
1.49 1.374 3.572 1.144 0.3682 0.183 5.402 1.867

con2.dst.mem_param f2 [64]
00000000: 883c 2741 8d44 5243 1340 8245 3442 4d3e
00000010: 7547 9f43 1344 f63c d447 a33c 803f d83c
00000020: 113f 9a47 fa3d 5e42 872c 4d48 52be 0342
00000030: 8744 3c3d 8e3e 98bd db46 473b 5e42 5645
00000040: ff41 683e d543 0243 1c44 ac46 a1b8 7f42
00000050: 413b eb3b a838 0a3c f93f 2c41 ee42 1a40
00000060: 9a3d 873f 5d36 3a38 853b 5447 2244 f043
00000070: b1bc 9e3e a739 a743 1a48 793b 8343 0c41
1.133 2.576 4.55 3.66 2.037 5.508 3.102 1.575
7.457 3.81 4.074 1.24 7.83 1.159 1.875 1.211
1.767 7.6 1.494 3.184 0.07074 8.6 -1.58 3.006
4.527 1.309 1.639 -1.398 6.855 0.9097 3.184 5.336
2.998 1.602 3.916 3.504 4.11 6.67 -0.5786 3.248
0.9067 0.9897 0.582 1.01 1.993 2.586 3.465 2.05
1.4 1.882 0.3977 0.5283 0.94 7.33 4.133 3.969
-1.173 1.654 0.7065 3.826 8.2 0.934 3.756 2.523

con2.dst.syn_param f2 [64]
00000000: 423c 2136 c33d 5144 6639 d235 3039 e13c
00000010: 0b31 1140 d347 443f 8f30 ae3c b83b 9aac
00000020: 0344 9535 2f37 b143 163f f230 0d3c 0041
00000030: b43c 1f42 d244 dc36 212b 543f 6d45 4738
00000040: 2c3c 013d 2b45 e63d f441 1834 3f3c 8041
00000050: ea3a e040 0340 ae40 b143 5c38 2241 c440
00000060: 0840 eb3d 143e 6140 7d3d 0c32 6a35 163c
00000070: f63d 7f3d 2543 933c e435 db31 6745 783f
1.064 0.383 1.44 4.316 0.675 0.3638 0.6484 1.22
0.1576 2.033 7.824 1.816 0.1425 1.17 0.965 -0.0719
4.01 0.3489 0.449 3.846 1.771 0.1545 1.013 2.5
1.176 3.06 4.82 0.4287 0.0557 1.832 5.426 0.5347
1.043 1.251 5.168 1.475 2.977 0.2559 1.062 2.75
0.8643 2.438 2.006 2.34 3.846 0.545 2.566 2.383
2.016 1.4795 1.52 2.19 1.372 0.189 0.3384 1.021
1.49 1.374 3.572 1.144 0.3682 0.183 5.402 1.867

con2.op.weight f2 [64, 64]
00000000: c82f dd2c 2f2e c1b1 0e30 c4b3 41b5 d9aa
00000010: 24b0 8ca9 db2e baaa 3030 90a9 772a 6b20
00000020: 303a 26b4 2039 db2f aca5 00b4 a22a 80b1
00000030: 2cb3 c8b9 ddac e82d f92f 42b0 b1b0 b79b
00000040: c7a0 08a9 1ab3 6dac 96b1 acb1 54a1 58b1
00000050: e332 b530 bb34 1826 3bae 1733 e3b5 eab4
00000060: 5833 d130 44b1 77b5 0ab6 19a3 7e2c 7d29
00000070: dab3 6429 8233 ce36 4ab6 dab5 41b7 dfb8
00000080: 092d 8739 53b7 5630 7235 eb30 6730 61ac
00000090: be2b 8a9c 84b4 b3b5 12ae 43b1 4b30 bfb0
000000a0: 8533 fa2b 212e 8b31 62b7 1e33 3cba c0a0
000000b0: b92e bbac 1534 b7b7 44b0 f62c 1f2e cd2e
000000c0: 9d35 e91c a42d 8633 83ae 5830 bcb4 7aa6
000000d0: 382d 3e2f 7ea5 8123 621d 672c 2936 7ab9
000000e0: 79b3 daab 9dad a9b6 57b4 7aac c631 ae33
000000f0: 0a30 13b1 8d2d b4ac 5135 4f24 aa33 31ac
00000100: 6430 8b2d a8b8 a4ba c3b6 bead 10ba 3db6
00000110: 40b3 1732 dc35 54ba e12d 48c0 acb8 06ba
00000120: 2db6 2831 f9b3 c8b6 9db4 e1b4 38c2 50b6
00000130: 0fb4 65b7 d3ab f0bc 4fb1 35b7 92b8 0cb7
00000140: 5cba 33b5 9135 62ba dfb5 02b7 fa34 0829
00000150: a4a6 afb8 8530 2abc 9b32 57b8 c4b2 4eba
00000160: a5b9 c2b5 e8bc a0b1 a6b7 cbab 17af 9eb4
00000170: 3732 77b1 f927 9c34 66b5 7ab7 5aa8 9aac
00000180: d4b9 05af 80b8 0ab6 862f 7fb5 91ba f4b6
00000190: 0221 d9b8 af38 bcbd dcb1 ae2f 71a9 c8b6
000001a0: 47b5 3330 77b5 4bb3 df30 00b1 78b7 94b9
000001b0: 9429 4fa3 7d35 90ba c6af 7ebb 3732 cfb5
000001c0: adae 8b31 9ead f7b3 44b9 86b8 04ba feb5
000001d0: 28b8 e1b2 71ba 9cac 4cbb e6b4 5729 e732
000001e0: beb5 a8a7 d839 2fb1 dd27 2b29 382d 6731
000001f0: f5b3 c632 82be edb7 1829 69b8 47b1 c7ba
0.1216 0.076 0.0966 -0.1798 0.1267 -0.2427 -0.3284 -0.0535
-0.1294 -0.04333 0.1071 -0.05255 0.1309 -0.04346 0.0505 0.00863
0.7734 -0.2593 0.6406 0.12274 -0.02216 -0.25 0.05182 -0.1719
-0.2241 -0.7227 -0.076 0.0923 0.1246 -0.133 -0.1466 -0.003767
-0.00933 -0.0393 -0.2219 -0.06915 -0.1746 -0.1772 -0.01041 -0.167
0.2152 0.1471 0.2957 0.0238 -0.09735 0.2216 -0.368 -0.3071
0.2295 0.1505 -0.1646 -0.3416 -0.3774 -0.01386 0.0702 0.04288
-0.2454 0.0421 0.2346 0.4253 -0.393 -0.3657 -0.4534 -0.609
0.0787 0.691 -0.4578 0.1355 0.3403 0.1537 0.1376 -0.0684
0.0605 -0.004433 -0.2822 -0.3562 -0.09485 -0.1644 0.1342 -0.1483
0.235 0.06232 0.09576 0.1732 -0.4614 0.2224 -0.7793 -0.00928
0.10504 -0.0739 0.2551 -0.4822 -0.1333 0.0775 0.09564 0.10626
0.3508 0.004795 0.08813 0.2351 -0.10175 0.1357 -0.296 -0.0253
0.08154 0.11316 -0.02145 0.014656 0.005257 0.0688 0.385 -0.6846
-0.2335 -0.06134 -0.0877 -0.4163 -0.2712 -0.06995 0.1804 0.24
0.1262 -0.1586 0.08673 -0.0735 0.3323 0.01683 0.2395 -0.0655
0.1372 0.0866 -0.582 -0.83 -0.4226 -0.0897 -0.758 -0.39
-0.2266 0.1903 0.3662 -0.791 0.09186 -2.14 -0.584 -0.753
-0.386 0.1611 -0.2491 -0.4238 -0.2883 -0.305 -3.11 -0.3945
-0.2537 -0.4622 -0.06113 -1.234 -0.1659 -0.4504 -0.5713 -0.4404
-0.795 -0.325 0.348 -0.798 -0.367 -0.438 0.311 0.0393
-0.02594 -0.5854 0.1412 -1.041 0.2064 -0.5425 -0.2114 -0.788
-0.7056 -0.3599 -1.227 -0.1758 -0.478 -0.06088 -0.1108 -0.2886
0.1942 -0.1708 0.03114 0.288 -0.3374 -0.4673 -0.034 -0.0719
-0.7285 -0.1097 -0.5625 -0.3774 0.11755 -0.3435 -0.821 -0.4346
0.00978 -0.606 0.5854 -1.434 -0.1831 0.12 -0.0425 -0.4238
-0.3298 0.1312 -0.3416 -0.2279 0.1522 -0.1562 -0.4668 -0.6973
0.04358 -0.014275 0.343 -0.8203 -0.12146 -0.9365 0.1942 -0.363
-0.1043 0.1732 -0.08777 -0.2489 -0.658 -0.5654 -0.752 -0.3745
-0.5195 -0.215 -0.805 -0.072 -0.912 -0.3062 0.04172 0.2157
-0.359 -0.0299 0.7305 -0.162 0.03072 0.04037 0.08154 0.1688
-0.2487 0.2117 -1.627 -0.4954 0.0398 -0.5513 -0.1649 -0.847

con3.src.mem_param f2 [64]
00000000: 883c 2741 8d44 5243 1340 8245 3442 4d3e
00000010: 7547 9f43 1344 f63c d447 a33c 803f d83c
00000020: 113f 9a47 fa3d 5e42 872c 4d48 52be 0342
00000030: 8744 3c3d 8e3e 98bd db46 473b 5e42 5645
00000040: ff41 683e d543 0243 1c44 ac46 a1b8 7f42
00000050: 413b eb3b a838 0a3c f93f 2c41 ee42 1a40
00000060: 9a3d 873f 5d36 3a38 853b 5447 2244 f043
00000070: b1bc 9e3e a739 a743 1a48 793b 8343 0c41
1.133 2.576 4.55 3.66 2.037 5.508 3.102 1.575
7.457 3.81 4.074 1.24 7.83 1.159 1.875 1.211
1.767 7.6 1.494 3.184 0.07074 8.6 -1.58 3.006
4.527 1.309 1.639 -1.398 6.855 0.9097 3.184 5.336
2.998 1.602 3.916 3.504 4.11 6.67 -0.5786 3.248
0.9067 0.9897 0.582 1.01 1.993 2.586 3.465 2.05
1.4 1.882 0.3977 0.5283 0.94 7.33 4.133 3.969
-1.173 1.654 0.7065 3.826 8.2 0.934 3.756 2.523

con3.src.syn_param f2 [64]
00000000: 423c 2136 c33d 5144 6639 d235 3039 e13c
00000010: 0b31 1140 d347 443f 8f30 ae3c b83b 9aac
00000020: 0344 9535 2f37 b143 163f f230 0d3c 0041
00000030: b43c 1f42 d244 dc36 212b 543f 6d45 4738
00000040: 2c3c 013d 2b45 e63d f441 1834 3f3c 8041
00000050: ea3a e040 0340 ae40 b143 5c38 2241 c440
00000060: 0840 eb3d 143e 6140 7d3d 0c32 6a35 163c
00000070: f63d 7f3d 2543 933c e435 db31 6745 783f
1.064 0.383 1.44 4.316 0.675 0.3638 0.6484 1.22
0.1576 2.033 7.824 1.816 0.1425 1.17 0.965 -0.0719
4.01 0.3489 0.449 3.846 1.771 0.1545 1.013 2.5
1.176 3.06 4.82 0.4287 0.0557 1.832 5.426 0.5347
1.043 1.251 5.168 1.475 2.977 0.2559 1.062 2.75
0.8643 2.438 2.006 2.34 3.846 0.545 2.566 2.383
2.016 1.4795 1.52 2.19 1.372 0.189 0.3384 1.021
1.49 1.374 3.572 1.144 0.3682 0.183 5.402 1.867

con3.op.weight f2 [2, 64]
00000000: c6af 0e8d f52c 30ac c7a8 20ab 27af cba9
00000010: e826 d32d 782c b8ad b915 0230 1ca9 a42c
00000020: 49b0 0e0b 009b 542c e130 eaa6 7c30 57ac
00000030: aeaa 3631 0f31 bcad 81a4 6aaf 2b31 152d
00000040: 712a bf26 e421 c52f ccb0 d8a7 34b3 b530
00000050: ebb0 b62b 55b4 fb30 53b0 002d f4ad 2430
00000060: 0124 b8b0 ac34 09a1 7c30 d71e e92e b92f
00000070: d1ad 2da9 c5b4 032d 19a3 f623 10b0 c2ae
00000080: 58b0 47a2 3aaa 0baa 422a 6eaa d2ae b9b1
00000090: c828 7a9d 7cb2 bfb0 eba3 82a1 4ea3 451e
000000a0: 92b0 1ba9 7829 cb30 a333 9f9e 7fb3 deb0
000000b0: 71af 2831 a12f 25b3 9023 f2ac 21ac a129
000000c0: 63a5 ecad 6631 ba2d 54a8 4429 c130 cb22
000000d0: 33a9 9a25 04a0 cb2b e12e 29a0 7c1e 7a9b
000000e0: a0a1 08ae 1430 a733 c323 7aa6 1c28 78a9
000000f0: 6834 40ac 18ae 0c9d 4ba6 5a2a 292c 8829
-0.12146 -0.0003085 0.07745 -0.0654 -0.03732 -0.05566 -0.11176 -0.04526
0.02698 0.091 0.0698 -0.08936 0.001397 0.1252 -0.03992 0.0725
-0.1339 0.0002153 -0.003418 0.0676 0.1525 -0.02701 0.1401 -0.0678
-0.0522 0.1628 0.1581 -0.0896 -0.0176 -0.11584 0.1615 0.0794
0.05032 0.02635 0.011505 0.1214 -0.1499 -0.03064 -0.2251 0.1471
-0.1537 0.06024 -0.2708 0.1556 -0.1351 0.0781 -0.093 0.1294
0.01564 -0.1475 0.292 -0.009834 0.1401 0.00668 0.108 0.12067
-0.0909 -0.04044 -0.298 0.0783 -0.01386 0.01555 -0.127 -0.1056
-0.1357 -0.01226 -0.04865 -0.0472 0.0489 -0.05023 -0.10657 -0.1788
0.03735 -0.00535 -0.2026 -0.1483 -0.015465 -0.01076 -0.01427 0.006123
-0.1428 -0.0399 0.04272 0.1498 0.2386 -0.006466 -0.2343 -0.1521
-0.1163 0.1611 0.1192 -0.2233 0.01477 -0.0773 -0.0645 0.04398
-0.02104 -0.0925 0.1687 0.0895 -0.0338 0.04114 0.1486 0.01327
-0.04062 0.02188 -0.00784 0.06088 0.1075 -0.008125 0.006332 -0.00365
-0.01099 -0.09424 0.1274 0.2391 0.01516 -0.0253 0.0321 -0.04272
0.2754 -0.0664 -0.0952 -0.00493 -0.02458 0.04962 0.065 0.0432
